Gilmutdinov2018Project8/HAR_Pytorch/saved_model_state.pt (torch_old, 682178 bytes, 24 tensors)

layer1.0.weight f4 [32, 9, 5]
000000 f2 5a 41 3e f2 91 c7 3e c2 3d 9b 3e 78 eb be 3e
       0.18882349 0.38978535 0.30320555 0.37289023
000010 9a 83 2c 3e 09 f2 a0 3e 9a 0f 88 3e a4 54 ae 3e
       0.16847077 0.31434658 0.26574403 0.3404895
000020 69 c7 09 3f d0 2f 04 3f be 7a e8 3d 7e c9 47 3e
       0.538199 0.51635456 0.11351536 0.19510457
000030 df 35 a4 3d b0 37 a6 3d 0a 24 98 3d 3c ab a6 be
       0.080180876 0.0811609 0.07428749 -0.32552516
000040 bc b1 84 be c5 20 5a be 04 32 9c be 43 1a 18 bf
       -0.2591685 -0.21301563 -0.3050691 -0.5941507
000050 45 5f 46 bf d3 86 2e bf a6 41 6f be 3c bc 38 3e
       -0.7748912 -0.68174475 -0.23364887 0.18040556
000060 ed 95 d8 3e 68 5e cf 3e 52 5c 8e 3d 88 eb c8 bd
       0.42301884 0.40501714 0.069512025 -0.09810549
000070 73 98 f0 bd 99 77 02 bf 39 c4 85 be c4 02 81 bd
       -0.117478274 -0.5096374 -0.26126269 -0.062993556
000080 6f ed 1f 3d ca 87 8e bd 55 93 91 3d 27 c8 17 be
       0.039044794 -0.069594935 0.071081795 -0.14822446
000090 6b 9e 5d 3e b2 f8 c8 3e 4c 8e 0d 3f 4f ba 9e 3e
       0.21642463 0.3925224 0.5529525 0.31001517
0000a0 e3 6b 46 bc 43 fe e9 3e 8a a3 2f 3f 8f b5 25 3f
       -0.012110683 0.457018 0.68608916 0.6473016
0000b0 d5 c4 5d 3f 42 88 7f be 62 90 d7 be 91 73 bd be
       0.86628467 -0.24954322 -0.42102343 -0.37002233
0000c0 d5 78 f1 be aa aa b0 be a4 d5 26 be 68 f8 2c be
       -0.471625 -0.34505206 -0.16292435 -0.16891634
0000d0 24 9b 25 be 82 47 63 be 18 57 90 bd 2b 31 43 3e
       -0.16172463 -0.22195247 -0.07047862 0.19061725
0000e0 0d 9a 48 3e 81 14 a1 bd 42 42 22 3e 2a 9f e6 3d
       0.19590016 -0.07865239 0.15845588 0.11260827
0000f0 56 da 18 bf 6a 89 07 bf 87 0d 0b bf 67 e2 a5 be
       -0.59708154 -0.5294405 -0.54317516 -0.32399294
000100 88 1c 07 bf e0 fd e6 3e 26 4e a9 3e 68 f2 84 3e
       -0.5277791 0.45115566 0.33067435 0.2596619
000110 58 a5 28 3e 2a 86 1f 3e 4f e8 e6 3e 25 48 a6 3d
       0.16469324 0.15578523 0.45099112 0.08119229
000120 82 a5 38 3e eb 97 0d 3e cf d6 d5 bd 52 b9 78 3e
       0.18031886 0.13827483 -0.10441362 0.24289444
000130 e1 4d d0 3e f9 d1 aa 3e d5 d8 18 3e 72 8f e0 3d
       0.40684417 0.3336332 0.14926465 0.1096486
000140 04 c6 ef be 4c aa 5b be be c4 d8 3d eb 62 7f 3e
       -0.4683076 -0.21451682 0.105844006 0.24940078
000150 66 db bb 3e 97 0b 48 be cb 5f 73 be 01 bc c9 3c
       0.36690825 -0.19535671 -0.23767011 0.02462578
000160 37 98 92 bd 91 d6 26 3e 50 ab a3 3e f1 22 0d 3e
       -0.07157939 0.16292788 0.3196664 0.1378286
000170 ef 6c c8 3c 29 09 75 3d e7 1c 20 3d 14 c9 d9 3e
       0.024466006 0.05982319 0.039090063 0.42536223
000180 ad 84 42 3e 69 e8 9e 3e 0a 15 7b 3e ed b9 57 3e
       0.18995924 0.3103669 0.24519745 0.21067019
000190 af 4e e6 3d f9 7b 98 3e d9 46 04 3e fc 72 b1 3d
       0.112454765 0.29782084 0.12917651 0.0866451
0001a0 5c 92 60 3e 55 e1 b2 3d 32 4a bf be 0f 1b 23 bf
       0.21930832 0.08734385 -0.37361294 -0.63713163
0001b0 61 4d 23 bf b9 fb 05 bd 93 3d 0f 3f 73 5e 20 be
       -0.63789946 -0.032710765 0.5595333 -0.1566103
0001c0 11 da 6d be ae dd 90 be d5 55 8d bd fc 32 58 be
       -0.23227717 -0.28294128 -0.06901137 -0.21113199
0001d0 cb 54 bc be 9b 92 f8 be 6c c6 2d be 9a a3 d4 be
       -0.36783442 -0.4854935 -0.16970223 -0.41531068
0001e0 c1 27 af be 98 31 34 bf ef b3 33 bf b8 2f d6 be
       -0.34210017 -0.70388174 -0.7019643 -0.41833282
0001f0 6a 45 83 be c1 25 18 bf 58 5e a8 be 14 66 4b be
       -0.25638896 -0.5943261 -0.3288448 -0.19863158
000200 93 6b fd 3d 44 7a 04 3f c3 9f 3f bf 95 9b 12 bf
       0.12374034 0.5174906 -0.7485315 -0.5726865
000210 a0 7b f7 be 8c 24 79 be e4 50 f9 3c 11 9a 2d bf
       -0.48336506 -0.24330348 0.03043408 -0.6781321
000220 8e 39 23 bf 8f 76 07 bf 26 dd 32 bf 5f 76 2f bf
       -0.63759696 -0.5291528 -0.69868696 -0.68539995
000230 af 12 39 be 5a b6 3f 3c 4b 4f 9f bc 33 2b 1f be
       -0.18073533 0.011701191 -0.01944699 -0.15543823
000240 ab 64 38 bd 4f 16 f2 bd f5 b4 2a be 07 be 87 bc
       -0.04501788 -0.11820661 -0.16670592 -0.016570104
000250 34 ac 7f be 0a 0a b3 bd 9d 8b 06 3d 2a 08 7b 3b
       -0.24968034 -0.08742149 0.03284799 0.0038304427
000260 bc 01 b7 bb 9d b9 f1 3c 5d 18 84 3e 99 36 53 be
       -0.0055849236 0.029507453 0.25799838 -0.20626296
000270 cc 57 0e be fa ff 61 be 63 6f 4c be d1 21 3f be
       -0.1390068 -0.22070304 -0.19964366 -0.18665244
000280 c4 c2 88 3d b8 ca 86 3c 9f b4 8c bd 9f d0 61 3d
       0.066777736 0.016454086 -0.06870388 0.055130597
000290 ba e2 99 bd 5a 63 1d be 38 49 fb bd 95 67 32 be
       -0.07513948 -0.15369931 -0.12269825 -0.17422326
0002a0 fe c3 ae bd d1 dd 86 3d a6 25 31 be 9d 1d de 3c
       -0.08533476 0.06585277 -0.17299518 0.02711373
0002b0 0a 37 10 bc 5e 11 b9 bc 90 a5 1f 3e b3 23 1c be
       -0.008802185 -0.02259129 0.15590501 -0.15247993
0002c0 2d 27 7f be 8d 95 b6 bd 56 3a 5a 3d 8f 9a 59 3e
       -0.24917288 -0.08915243 0.05327829 0.21250366
0002d0 5e f2 1d 3d 39 0a 05 3e 0e 89 15 bd ed a0 3e 3e
       0.038561217 0.12992181 -0.03650766 0.18616076
0002e0 47 6c 90 3d af bd 6b be b8 22 bb bd 42 29 f2 bd
       0.07051902 -0.23021577 -0.091374815 -0.118242756
0002f0 e7 93 1c be 91 01 df be 52 2d 56 be 32 28 8e be
       -0.15290795 -0.43555883 -0.20915726 -0.27765042
000300 3a 7d 2c bd d6 15 8d be 82 00 a7 be 7a 65 07 3f
       -0.042111613 -0.27555722 -0.32617575 0.52889216
000310 62 9a 98 3e 74 2d a7 3d 31 11 44 3e 79 d1 a4 3d
       0.29805285 0.08162966 0.19147183 0.08047766
000320 1f c8 ab 3e f4 1b 08 3e 74 6b 87 3e 1b a8 c0 bc
       0.33551118 0.13291913 0.26449168 -0.023517659
000330 30 e1 40 be 40 e1 e2 3e 59 8c 8d bc fe cb 37 be
       -0.18835902 0.44312477 -0.017278837 -0.1794891
000340 47 4d b6 be 06 13 cf be ef e9 9d be 5a 1b e0 be
       -0.35605833 -0.404442 -0.3084254 -0.43770868
000350 5b bb 02 bf fa 90 c1 be 79 fd 2d be 07 d8 92 3e
       -0.5106713 -0.3780592 -0.16991223 0.2868044
000360 e8 4d 07 3f 79 b7 80 3e 34 af 9b 3e 48 e4 48 3d
       0.5285325 0.2513998 0.30407107 0.04904583
000370 d6 15 6d 3e 81 a6 e3 3e 7d 9c 0d 3f 1a a5 ed 3e
       0.23152861 0.4446297 0.5531691 0.46415025
000380 e6 0c a8 3e c1 7a c1 3e 54 26 d8 3d 75 90 bb bb
       0.3282234 0.37788966 0.105541855 -0.0057240077
000390 eb cc f3 bc e2 73 47 3e 65 f7 07 bf ad 88 f6 be
       -0.029760798 0.194778 -0.5311187 -0.4815115
0003a0 88 e7 db be 37 d4 06 bf 83 b6 5c be 90 72 54 3e
       -0.42950082 -0.52667564 -0.21553998 0.20746827
0003b0 d1 72 83 3e 77 be 9b 3e fd 68 85 3e 08 5f 20 3e
       0.25673535 0.3041875 0.26056662 0.15661252
0003c0 20 c6 c9 3d 0f c9 03 bf df cd 4f bf 70 96 81 bf
       0.098522425 -0.51478666 -0.8117351 -1.0124035
0003d0 7e b9 23 bf 61 ee fc be 4b 2c 1c bf 3e ab e0 be
       -0.63954914 -0.4940062 -0.61005086 -0.43880647
0003e0 b1 84 ef be c8 da 05 be 3e 8b 64 3e 43 69 74 bd
       -0.46780923 -0.1307174 0.22318742 -0.059670698
0003f0 d2 4e 69 be f1 f1 02 bf d2 57 18 bf eb d3 77 3d
       -0.22783974 -0.51150423 -0.59509003 0.060504835

layer1.0.bias f4 [32]
000000 62 00 60 be 74 85 3e bf e8 23 cc 3e 77 0c 69 bf
       -0.21875146 -0.74422383 0.39871144 -0.91034645
000010 8f e2 ca be 9d b6 f2 be 42 1c 4c bf 14 e0 9e bd
       -0.39625975 -0.47404948 -0.7973062 -0.07757583
000020 bf 64 02 3b 63 82 84 3e 56 b0 6e be fc 56 c5 3d
       0.0019896475 0.25880727 -0.23309454 0.096357316
000030 a9 b7 37 be 38 ed 3e be 38 df 85 bd fe 97 3b 3c
       -0.17941155 -0.1864518 -0.06536716 0.011449812
000040 ad b1 1d bf cc 5a 87 be 2e 2d 75 3e 91 80 a8 3e
       -0.61599237 -0.2643646 0.23943016 0.32910588
000050 32 57 8f bd 9e 6c 74 bf b4 12 28 3e e5 a0 a2 3c
       -0.06999053 -0.95478237 0.16413385 0.019852111
000060 4a 70 11 bf 21 72 55 3e 8c 7f a2 bd 21 90 d2 be
       -0.56811965 0.20844318 -0.07934484 -0.41125587
000070 c2 0b 41 bf 65 68 4d 3c 39 d4 c0 be d8 58 48 bf
       -0.75408566 0.012537097 -0.37661913 -0.78260565

layer1.2.weight f4 [32]
000000 4e 27 bb 3e 58 f1 a6 3e d8 74 84 3f df fc 7b 3e
       0.36553425 0.32606006 1.0348158 0.24608181
000010 c5 9a 3a 3f 62 0e 12 3f a1 29 69 3a 74 80 8f 3c
       0.7289241 0.57053196 0.0008894448 0.017517306
000020 40 e5 1a 3f c7 52 2c 3f 11 c2 3c 3f 9e 73 94 3f
       0.6050606 0.6731381 0.7373362 1.1597784
000030 45 46 96 3e 0b 69 84 3f cb 54 ad 3c 06 05 fe 3e
       0.29350486 1.0344557 0.021158597 0.49613208
000040 df c5 53 3f a0 94 23 3f d3 21 14 3d 37 6f 49 3f
       0.827238 0.6389866 0.03616507 0.78685325
000050 9b 91 82 3f 0d 59 9c 3f 18 85 44 3f fc 2b 2b 3e
       1.0200685 1.2214676 0.76765585 0.16715997
000060 7b 56 e0 3e bf d3 70 3f 22 d3 71 3f 41 44 8d 3f
       0.4381598 0.940731 0.9446279 1.1036454
000070 30 75 5c 3f d2 11 17 3f b9 6b 77 3f bb a8 37 3f
       0.86116314 0.59011567 0.96648747 0.7174184

layer1.2.bias f4 [32]
000000 e7 e1 d0 3e 0b c8 b0 3e 48 e3 a2 3e 7a 81 10 3e
       0.4079735 0.3452762 0.31814027 0.14111891
000010 bd bf a5 3e 64 2a cd 3e 9a 23 1d bc 18 b1 3c 3c
       0.32372847 0.40071404 -0.009591008 0.011516832
000020 43 4c b4 3d cd a4 84 3d 7e 9b a3 3e 25 aa ab 3e
       0.08803608 0.06476746 0.3195457 0.33528247
000030 a2 94 6c be 24 f3 06 be 9a e0 f6 3c e4 86 c8 3c
       -0.23103574 -0.13178688 0.030136395 0.024478383
000040 7e 15 2e 3e 23 80 e6 3c fc 4a 80 be 47 a4 ec 3d
       0.17000386 0.028137272 -0.2505721 0.11554771
000050 4c e9 9b 3e 3a 61 fa 3c f3 5f 54 be b3 c3 a1 3d
       0.3045143 0.03056394 -0.20739727 0.07898655
000060 9e 06 d2 3e 0a ff b5 3d 6a e0 21 3e 5e ba 29 bd
       0.41020674 0.088865355 0.15808263 -0.0414375
000070 6a 63 cd 3e 41 9e 80 3d 66 8b 62 bc 42 15 ae bd
       0.4011491 0.062801845 -0.0138271805 -0.08500148

layer1.2.running_mean f4 [32]
000000 e2 b9 32 3f 0d 2a 0e 3f 8a c6 96 3f 08 20 74 3e
       0.69814885 0.55532914 1.1779339 0.23840344
000010 2c 1b 4e 3f 81 f1 3d 3f e2 fa e6 3e 87 2d 1d 3f
       0.8051021 0.7419663 0.45113283 0.61397594
000020 2b d6 70 3f 1a 2d 85 3f 96 34 14 3f ef b9 29 3f
       0.94076794 1.0404389 0.5789274 0.6629934
000030 74 10 11 3f bf ba f5 3e 74 15 48 3f 07 60 55 3f
       0.5666573 0.47994038 0.78157735 0.8334965
000040 ad 77 c6 3e 90 f0 68 3f cd 3f 8f 3f 60 58 91 3f
       0.3876318 0.9099207 1.1191345 1.1355095
000050 9a d1 71 3f 26 ee 82 3e c2 0a 77 3f 58 81 48 3f
       0.9446045 0.25572318 0.9650079 0.7832236
000060 ff 0d e5 3e 3b 97 91 3f 78 09 61 3f f7 43 90 3e
       0.4473724 1.1374277 0.87905073 0.28176853
000070 58 8e c4 3e ac da 57 3f ab 88 00 3f 49 43 02 3f
       0.3838985 0.8431804 0.5020854 0.5088392

layer1.2.running_var f4 [32]
000000 71 0f 86 40 f3 cf b3 40 84 a5 c8 40 ec 01 3d 40
       4.189385 5.6191344 6.2702045 2.9532423
000010 18 9a 0e 41 04 3a 15 41 94 59 a0 40 99 27 a1 40
       8.912621 9.326664 5.010935 5.0360837
000020 e1 b9 28 41 cf 71 d3 40 f6 4d 73 40 3a e8 6f 40
       10.545381 6.6076427 3.8016334 3.748549
000030 91 c3 8c 40 ea 7b 48 40 f8 f3 ab 40 2d 1e cc 40
       4.398873 3.132563 5.3735313 6.3786836
000040 5d 96 c3 40 25 ba 22 41 54 fa 19 41 e6 80 c1 40
       6.112105 10.170445 9.623615 6.0469847
000050 47 e1 59 41 47 48 5b 40 4a 96 ef 40 22 1a ac 40
       13.617499 3.4262865 7.487096 5.37819
000060 93 93 a7 40 b8 a9 4b 41 cf ab 00 41 6a a7 01 40
       5.2367644 12.728935 8.041945 2.0258431
000070 77 62 57 40 39 a8 29 41 37 ad 3c 40 61 ef a4 40
       3.3653848 10.60357 2.9480722 5.154221

layer2.0.weight f4 [32, 32, 5]
000000 8c 6b 67 bc 38 2d c3 bd e9 d0 15 be 95 0b ce bd
       -0.014124762 -0.09530109 -0.14630474 -0.10060803
000010 34 6a 61 bd 25 ec cb 3e bd e0 4f 3e 9a 6f 7f 3e
       -0.055032924 0.398286 0.20300575 0.24944916
000020 6d 97 fc 3d 3b 14 f2 3d 49 13 0a bf c0 44 54 bf
       0.1233357 0.11820265 -0.53935677 -0.82917404
000030 fd b5 3e bf c7 30 dc be 1a e2 ca bd 35 eb 41 3d
       -0.7449644 -0.43005964 -0.09906407 0.04734345
000040 6a 5a 30 bc 59 ba ee 3c 50 49 aa 3d e9 11 df 3d
       -0.010763744 0.029141592 0.083147645 0.10892088
000050 63 9f 66 3e 50 8d 52 3e b7 1d f7 3d da 38 52 3d
       0.22521739 0.20561719 0.120662145 0.05132375
000060 21 dc 27 3e f1 a6 2f bd 75 8d a0 be 26 f3 7d be
       0.16392566 -0.042883817 -0.31357923 -0.24799785
000070 07 7e 23 3d be b0 44 3e 64 bf 66 bd e2 fe 98 3c
       0.03991511 0.19208047 -0.056334868 0.018676225
000080 db 1f 6d bd d7 90 e1 bc ae cb 71 3d 6d f5 0e bc
       -0.057891708 -0.027534885 0.059032135 -0.008725506
000090 92 bd 95 bd b9 21 88 bd 69 86 3a bd 20 73 e0 bb
       -0.07311548 -0.06647057 -0.04553834 -0.0068496615
0000a0 8e 51 41 bd c3 7a a4 3d 5d 6f 1f 3e 65 71 2c 3e
       -0.047196917 0.080312274 0.15569825 0.16840132
0000b0 e8 69 5d 3e 01 8e 34 3e 56 cf 61 3e f8 aa 29 3e
       0.21622431 0.17632295 0.22051749 0.16569126
0000c0 05 d4 7a 3e 1f 17 fe 3e a0 60 9a 3e 2e a9 e3 3e
       0.24494942 0.49627015 0.30151844 0.4446501
0000d0 2e af fb 3e 93 36 02 3f fc bf f1 3e 54 5c 76 bf
       0.4915709 0.50864524 0.47216785 -0.9623463
0000e0 38 be 3a bf 85 4e 14 bf c6 9c 27 be 35 8d 27 3e
       -0.729465 -0.5793231 -0.16368398 0.1636246
0000f0 68 49 5f bd 10 24 18 3e 20 f8 eb 3d 13 ca db 3d
       -0.054513365 0.14857507 0.115219355 0.10731902
000100 92 94 1b 3e 28 f6 78 3e e0 ca ad bd 7b 6e 01 bf
       0.15193394 0.24312651 -0.08485961 -0.50559205
000110 49 35 3b bf bb 39 34 bf 09 70 57 3d 51 f9 cb 3c
       -0.7312818 -0.7040059 0.05259708 0.024899157
000120 ff ad 18 3e 2d 68 b6 3d 62 8b d5 3d 11 51 9d be
       0.14910124 0.08906589 0.10426976 -0.3072591
000130 55 21 05 be ab 47 3b bc d2 fd a1 3d c8 78 c4 3e
       -0.13000996 -0.011430661 0.079097405 0.383734
000140 65 95 0f 3e 4b f8 18 3e f3 99 84 3b c1 b5 08 bd
       0.14021833 0.14938466 0.0040466725 -0.03337646
000150 86 cf a2 3c 5b 1c 11 be 05 dc 05 be 96 18 a4 bd
       0.019874346 -0.14170973 -0.13072212 -0.08012502
000160 d9 9d 20 3a e7 da f0 3d 97 d0 10 be 50 ac 1e be
       0.0006127037 0.11760502 -0.1414207 -0.1549542
000170 95 f8 f8 bd 1c d9 58 be 2c 75 53 bd 26 54 2f 3b
       -0.12156788 -0.2117657 -0.051625416 0.0026753037
000180 8f 52 0c bc 3b 10 b3 bd ef 30 8f bc 5d 8e 91 bc
       -0.008564605 -0.0874333 -0.017479388 -0.01776808
000190 4d e3 68 bf a5 71 53 bf b4 c7 1d bf 92 b7 21 be
       -0.90971833 -0.8259528 -0.6163285 -0.15792683
0001a0 0e 83 e3 3e cb 46 05 3e 94 af 49 3c 32 34 0a 3c
       0.44435924 0.13015287 0.0123099275 0.008435296
0001b0 03 aa 42 bd 8e a5 a0 3d ed 65 a1 be fb ca 8d 3d
       -0.047525417 0.07844077 -0.31523076 0.06923481
0001c0 79 a4 ac 3e b2 c2 e1 3e 66 ca d8 3e fb 43 d0 bd
       0.33719233 0.44093853 0.42341918 -0.10169216
0001d0 73 c1 41 be 42 35 29 be 8e 72 05 be 63 40 ee bc
       -0.18921451 -0.16524222 -0.1303198 -0.029083436
0001e0 c9 b2 a7 be 68 3e b8 be f9 d9 84 be 71 4d bb 3b
       -0.3275359 -0.35985112 -0.2594755 0.005716019
0001f0 91 02 09 3e f2 b1 54 be 5b ff 96 be 78 29 56 be
       0.13379885 -0.20771006 -0.29491696 -0.20914257
000200 ec 30 04 be bd 6c b2 3c 34 ad 2d 3e 73 71 57 bd
       -0.12909287 0.021780366 0.16960603 -0.052598428
000210 75 d4 72 bd fe 18 82 be cc f4 59 be db 3c e3 3e
       -0.059284646 -0.25409693 -0.21284789 0.44382367
000220 1a de 08 3f 3e bc ab 3e ca b6 14 3e 16 c6 fc bd
       0.534639 0.33542055 0.14522853 -0.123424694
000230 a3 61 b1 bd 89 d3 bf bd ed ca 08 3c 75 b9 5f bb
       -0.08661201 -0.09366519 0.0083491625 -0.003413764
000240 39 67 95 bd 3e 04 0a 3e 03 8f a5 3d 7b 9f ad 3b
       -0.07295079 0.13478181 0.08083918 0.0052985526
000250 57 b7 29 bd 4b b8 30 bc b2 45 94 be 4a a0 2f be
       -0.041434612 -0.010786126 -0.28959423 -0.17150989
000260 49 f4 45 be dd ac f7 bd a2 33 99 3b a8 67 c0 3e
       -0.19331469 -0.12093518 0.0046753446 0.37579083
000270 55 c9 c1 3e a6 54 8c 3e 30 72 4d 3e 06 97 65 3d
       0.37848917 0.27408332 0.2006309 0.05605223
000280 99 ec 11 be fa 30 21 be 32 25 91 bd 5d ca c9 bd
       -0.14250411 -0.1574134 -0.070871726 -0.09853051
000290 6f 03 86 bb 6b 63 02 3e bf 98 24 3e 1a f2 3e 3c
       -0.004089765 0.12733237 0.16073893 0.011654401
0002a0 46 23 06 3e 02 b5 77 bd d8 e5 87 be ef 46 d5 be
       0.13099393 -0.060475357 -0.26542544 -0.4165568
0002b0 9b 27 9d be ab ca 85 be 10 7a 8b bd 35 6b 12 be
       -0.3069428 -0.26131186 -0.06810391 -0.14298709
0002c0 2e 82 a4 bc 28 49 b8 bd 2a c7 00 be 5f 66 a5 3c
       -0.020081606 -0.089983284 -0.12575975 0.020190416
0002d0 e2 f7 e8 3d 68 06 c0 3c 2c ab 96 bd 59 3c af bd
       0.11375405 0.023440555 -0.07356867 -0.08556432
0002e0 7a 4d 9c bd a6 e0 82 be 04 d7 8f be b5 d4 cb be
       -0.07631965 -0.25562018 -0.2809373 -0.3981072
0002f0 83 f6 45 be b8 51 24 bc 66 50 ed 3d f8 dc ce ba
       -0.19332318 -0.010029249 0.115876004 -0.0015782407
000300 f7 ac 1e 3d 2b a9 94 3d de 63 8e 3d 8d 17 57 be
       0.03873917 0.07258829 0.06952642 -0.21005078
000310 04 bb d5 bd 67 95 5b bd b1 65 91 bc 4f 85 61 be
       -0.10436061 -0.053609278 -0.017748686 -0.2202351
000320 a0 e1 fe bd c9 96 f2 bc 72 5d 81 3d 64 f7 49 3d
       -0.12445378 -0.029612916 0.063166514 0.049308196
000330 00 49 df 3b 70 88 0d 3c 30 a5 03 3e 34 31 f3 3d
       0.006814122 0.008638486 0.12855983 0.11874619
000340 85 f7 cf 3d ce 1f 7b 3e a7 f1 a7 3e 99 fc 00 3f
       0.101546325 0.24523851 0.32801554 0.50385433
000350 8d 1b 1b 3f 35 42 37 3f b3 6e 17 3f 40 d0 45 bf
       0.60588914 0.715854 0.5915329 -0.7727089
000360 c1 35 54 bf 17 d4 21 bf 09 e3 42 be 0e f3 84 3e
       -0.8289452 -0.6321425 -0.1903192 0.25966686
000370 b6 ef ac 3d 22 3a 68 3e c0 d4 79 3e 54 48 37 3e
       0.08444159 0.22678426 0.24397564 0.17898685
000380 43 19 7f 3e a0 d1 23 3e d7 eb 3f 3e 8a 66 86 bd
       0.2491198 0.15997934 0.1874231 -0.065625265
000390 02 b2 ad be f4 cc ea be 8a ad f3 bc 6c d2 fe 3d
       -0.33924872 -0.45859492 -0.029745836 0.124424785
0003a0 64 03 0b 3e c2 e4 0e 3d 89 4d 51 3d fd f8 0f be
       0.13575512 0.03488613 0.051099334 -0.14059825
0003b0 83 b0 65 3c 8c b7 1f 3e e8 9f 8f 3e e8 80 c3 3e
       0.014019134 0.15597361 0.28051686 0.38184285
0003c0 20 e0 ac 3d 6a 2e 01 3e 63 61 c3 3c 61 8b 80 bd
       0.08441186 0.12615362 0.023850149 -0.062765844
0003d0 74 96 10 be 8a ca b1 be 28 32 93 be 4e 1d d7 bd
       -0.14119893 -0.34724838 -0.28749204 -0.10503636
0003e0 79 37 d5 bd 2b b3 8c 3d 0b 70 5c bd 9d 74 a7 bc
       -0.10410971 0.06870111 -0.05381779 -0.020441348
0003f0 31 ae 81 bd bd 55 b2 3b 54 29 df 3c a1 e0 d5 3c
       -0.063320525 0.0054423497 0.027241386 0.026108088

layer2.0.bias f4 [32]
000000 65 c5 16 bd 77 c8 fb bd 79 8c e9 bb 6e 1c 92 be
       -0.036809344 -0.12294095 -0.0071273413 -0.28537315
000010 d6 c1 84 bd ff 81 6d 3d 5d 44 94 be c2 ba 13 3e
       -0.06482284 0.057985302 -0.28958407 0.14426711
000020 ad cc 02 bf 6c 09 fa bd 44 2b 75 3e 05 09 60 be
       -0.5109356 -0.12208828 0.23942286 -0.2187844
000030 76 ab 2f 3e 5b 98 99 bd 4d 19 0e bf 74 f9 66 be
       0.17155251 -0.074997626 -0.55507356 -0.22556096
000040 fb 33 8b be 46 79 30 bf 0c 8d d1 be c5 f5 8b 3e
       -0.27188095 -0.6893505 -0.40927923 0.27335945
000050 a9 47 0a 3e 19 eb 08 bf f2 a4 82 be 8c 83 b9 be
       0.13503899 -0.5348373 -0.25516468 -0.36233175
000060 57 d0 fa bd 4c f0 46 bf 25 fb 60 bf c4 a1 7b be
       -0.12246769 -0.77710414 -0.87883216 -0.24573427
000070 19 66 61 be d0 d7 98 bf 54 3d 20 bd 46 8c db be
       -0.22011603 -1.1940861 -0.039120987 -0.42880458

layer2.3.weight f4 [32]
000000 a1 61 dd 3e ce 9e e2 3e 50 2e 86 3e f9 68 b8 bb
       0.43238547 0.44261783 0.2620721 -0.005627748
000010 70 3e 14 3f 30 e8 8e 3d a5 4c 06 3f f2 e6 6a 3f
       0.5790777 0.0697788 0.524607 0.91758645
000020 9d c9 6e 3e 3f a0 33 3f e9 08 04 3f 4f f2 d0 3b
       0.23319097 0.7016639 0.51576096 0.0063765417
000030 27 da 8a 3f 3c 6b fb bb 46 e1 9a 3e 3e c5 4a 3f
       1.0847825 -0.0076726954 0.30249995 0.7920722
000040 1f 17 04 3f f7 4c 8e 3e f5 20 9e 3e 85 b3 1c 3f
       0.5159778 0.27793095 0.3088452 0.61211425
000050 bd 4d 09 3f 96 43 a2 3f 27 db a4 3f 18 db 2b bb
       0.53634244 1.2676876 1.287938 -0.002622312
000060 fb ca 0b 3f c4 16 a9 3d 36 d7 0f bf 7e 5e d0 3e
       0.546066 0.08256295 -0.5618776 0.40697092
000070 1c eb c0 bc 22 6b 5d 3f 1d 02 67 3f 53 f5 49 3f
       -0.023549609 0.86491597 0.902376 0.7888996

layer2.3.bias f4 [32]
000000 2c 61 8f 3d b5 3c cd 3d 45 b4 9e 3d bc a2 72 3b
       0.07000956 0.100213446 0.077492274 0.0037023267
000010 a3 9d 28 be c9 58 0f bc d4 3a 52 be f9 ab bb bb
       -0.16466384 -0.008749195 -0.20530254 -0.005727288
000020 61 b2 ec 3c 25 3d c3 3d 88 9b 6f 3e 30 eb 10 3e
       0.028893651 0.09533147 0.23399174 0.14152217
000030 29 39 19 bd 68 d3 86 3c 39 6f da 3e ff 9c dc 3b
       -0.037408028 0.016458228 0.4266298 0.0067325826
000040 64 e6 86 3e 24 89 c6 bd 20 35 68 bd 24 38 ca bd
       0.2634765 -0.09694126 -0.05669129 -0.09873989
000050 87 57 e5 3d ee 4f d5 bd 4f b0 12 3e fe 5f 65 3b
       0.11198335 -0.10415636 0.14325069 0.0034999843
000060 6d 4f 24 3d 75 e0 56 3c 86 ce 06 3e 5f be 81 bb
       0.04011481 0.013115038 0.1316472 -0.0039594616
000070 e3 b6 9b 3a 6a 60 f3 be b2 4a 83 3c fd ce 97 3e
       0.0011880066 -0.47534496 0.016026828 0.29650107

layer2.3.running_mean f4 [32]
000000 4a 95 8f 3f 7b b3 9b 3e b9 dd 95 be 2f 14 98 bf
       1.1217434 0.3041037 -0.29270723 -1.188116
000010 5f 23 58 3f b0 6f e2 3e 3a 47 ac be b8 07 07 40
       0.8442897 0.44225836 -0.33648092 2.109846
000020 85 d9 a6 bf 2c f9 7c bd 3a ec 2c 40 1b fe 7c bf
       -1.3035132 -0.061761066 2.7019181 -0.98825234
000030 80 23 1f 3e f6 01 28 bf 52 c4 a4 3f cd 92 37 bd
       0.15540886 -0.6562799 1.2872412 -0.044817735
000040 b6 d3 40 3f 33 b4 35 bf 8c 37 8e be 9a da e2 3f
       0.75323045 -0.7097809 -0.27776754 1.7722962
000050 5d 00 b8 3e 98 19 c3 bf 93 83 ee 3f ce e6 4f 3f
       0.35937777 -1.5242186 1.8633903 0.81211555
000060 68 4c ab 3f b8 13 aa bf 3c 14 27 c0 22 70 f9 3e
       1.3382692 -1.3287268 -2.61061 0.48718363
000070 43 5d 71 be a6 fa 21 c0 36 d8 3c be a4 a1 45 3e
       -0.23570733 -2.5309234 -0.18441853 0.19299942

layer2.3.running_var f4 [32]
000000 c2 0b b6 41 d8 1b a8 41 a3 57 a0 41 6d 4b 0f 41
       22.755741 21.013596 20.042791 8.9559145
000010 2e 02 0d 41 c0 73 fa 41 21 1c 0d 42 4f 60 a5 41
       8.813032 31.306519 35.27747 20.672026
000020 11 c6 85 41 42 da 79 40 30 34 81 41 f4 56 9c 40
       16.721712 3.9039464 16.150482 4.8856144
000030 cf b6 d5 40 a6 f0 01 41 91 01 ff 41 e7 a5 1f 41
       6.6785655 8.121252 31.875765 9.9780035
000040 63 e2 e9 41 80 9d bf 41 67 d9 f5 40 8d df 46 41
       29.23554 23.951904 7.6827884 12.429578
000050 39 aa 11 41 8c a6 08 41 30 da 65 42 28 4a 92 41
       9.104058 8.540661 57.463074 18.28621
000060 6c e8 11 42 71 00 3f 41 31 b0 2b 42 27 b9 1f 41
       36.476974 11.937608 42.922062 9.982703
000070 4b 86 cd 40 b9 eb bb 41 02 63 19 41 db 35 73 41
       6.422643 23.490099 9.586672 15.200648

layer3.0.weight f4 [64, 32, 5]
000000 dd e6 43 3d 90 84 40 3c 8d a7 9b bd ea 19 f6 3b
       0.04782759 0.011750355 -0.07600317 0.0075104134
000010 7e 6d aa bc a9 50 ce bd ca 99 bd bd fa bc 9c bd
       -0.020804163 -0.100739785 -0.092578486 -0.07653232
000020 46 d0 29 be f6 5a 2b be 4e bf 3e bd 83 ff e2 bd
       -0.16583356 -0.16733918 -0.04656916 -0.11083891
000030 27 b2 6c bd 73 e5 b9 bc 6c 80 99 bd a5 2d bb 3a
       -0.057787087 -0.022692418 -0.07495198 0.0014280571
000040 f3 7e 25 bb f2 73 07 3e e1 58 bc 3d c5 0d 84 3d
       -0.002525267 0.13227823 0.0919664 0.06447939
000050 16 68 de bd ab 08 cd bd b7 84 c2 bd 72 a0 35 3d
       -0.108596966 -0.10011419 -0.094979696 0.044342466
000060 78 e6 55 bd 9e 3c 05 bd 17 9d 7b bc 1a 5b c0 bc
       -0.052221745 -0.032528512 -0.015357277 -0.02348094
000070 35 90 9f bc f1 7c 85 3d af e9 d3 bc 9f aa b3 bd
       -0.019477943 0.06517971 -0.025868265 -0.08772778
000080 c9 d4 4f bd 10 b8 78 bd fb 94 c6 bd 0e b1 3d be
       -0.050740037 -0.06072241 -0.096963845 -0.18524572
000090 65 29 83 be 37 6d c8 bd 17 7d 6e be f5 94 82 be
       -0.2561752 -0.09786456 -0.23289905 -0.2550427
0000a0 56 56 14 be ef b2 c2 bd bf 94 65 be df ed 4c be
       -0.1448606 -0.09506785 -0.22420023 -0.20012616
0000b0 7c e9 00 be 0c db 19 3d d3 8a 4b bc 16 b9 e9 bb
       -0.12589067 0.037562415 -0.012423235 -0.0071326597
0000c0 a5 2a 3f 3d e3 a7 9c 3c f5 02 b5 bd 51 6c 1b bd
       0.04667153 0.019123023 -0.08838455 -0.037945095
0000d0 9a 5a 01 be 5e 05 5a bd 21 d3 ab bb ab c7 1b 3d
       -0.12632218 -0.053227775 -0.0052436744 0.038032215
0000e0 62 f7 54 3d 8a 11 28 bd 2e df bd 3d 3f 93 59 3d
       0.051993735 -0.04103235 0.09271084 0.05311894
0000f0 84 7c b1 bb 3e eb 41 3c 5e f2 58 bd 6b 2e 2e be
       -0.0054164547 0.011835871 -0.052965514 -0.17009895
000100 8e 6f 2f be 01 61 22 3e 52 2f 83 3e ff 76 4a 3e
       -0.17132398 0.15857317 0.2562204 0.19771956
000110 e2 f5 2c 3e e9 07 8a 3e 99 ce 2c be 80 b2 1d be
       0.16890672 0.2695916 -0.16875686 -0.15400124
000120 6d 62 13 be 41 32 45 be eb 34 61 be 51 d6 f5 3c
       -0.14393015 -0.19257452 -0.21992843 0.03000942
000130 c2 9c 14 3e 52 d0 01 bd da c0 91 bd ce b0 f7 3c
       0.14512923 -0.03169281 -0.07116862 0.030235674
000140 95 83 19 3e d7 9b 06 3d 36 40 a8 3c da d6 c3 bc
       0.14991601 0.032863464 0.02053843 -0.02390616
000150 a4 41 35 3c 0e 98 19 bd 02 6c 1d bd 0c 52 c5 3c
       0.011063013 -0.037498526 -0.038433082 0.024086975
000160 86 b7 3e 3c 49 a2 a9 3d 2e c6 90 bd 2d 6d 9e bb
       0.011640435 0.082829066 -0.0706905 -0.004834792
000170 c5 3b 6d bb b1 6e 16 3d 4b a9 87 3d 9c 8f b1 bd
       -0.0036198955 0.036726657 0.06624087 -0.086699694
000180 77 44 68 3d db 41 4b 3d 3b a2 5a bc b9 10 8b 3b
       0.05670592 0.04962335 -0.013344343 0.004243937
000190 9f 3c 97 bd 16 aa 90 bd 5a 05 00 be 9b d1 59 be
       -0.073846094 -0.07063691 -0.12502041 -0.21271364
0001a0 a2 0e c9 bd 7c dc 81 bd d4 97 fd bd 62 6c f6 bd
       -0.09817244 -0.06340882 -0.123824745 -0.12032391
0001b0 cd 97 09 be 39 b9 8b bd bd 8f e1 3e b6 59 03 3f
       -0.13436814 -0.06822438 0.44054976 0.51308763
0001c0 3f 58 fd 3e 4a 7c f8 3e 37 30 ec 3e b6 91 22 3e
       0.4948139 0.48532325 0.46130535 0.15875897
0001d0 62 07 03 3e 2a b3 96 3d fd c7 2d 3e a4 60 7d 3d
       0.12795785 0.073583916 0.1697082 0.06185974
0001e0 35 4a b6 3e 3f 19 bf 3e 52 0c c5 3e e7 53 ab 3e
       0.3560349 0.3732395 0.38485962 0.3346245
0001f0 ee 18 e7 3e 50 ba b4 3d d3 65 2f 3e f0 b9 2b 3e
       0.45136207 0.08824599 0.17128687 0.16770148
000200 1c bb 8a 3d 31 cd 66 3e 9f eb 10 3d 5d f2 b3 3d
       0.067739695 0.22539212 0.035380956 0.087864615
000210 eb fa 54 bd 04 3d fe 3c e5 e8 8a 3c b2 27 b1 3d
       -0.051997107 0.031034954 0.016956756 0.086501494
000220 87 d6 28 3d 9d f5 4c 3e c0 53 01 3e 69 c9 3b 3e
       0.041220214 0.20015569 0.12629604 0.1833855
000230 31 e0 de 3d 53 e0 d9 3d 5d 7c 6b 3e ec 07 5c 3e
       0.10882605 0.106384896 0.2299666 0.21487397
000240 c3 09 f1 3d 6d d9 b7 bd 2a 18 20 bd 18 cf e7 bd
       0.1176944 -0.089770176 -0.039085545 -0.11318797
000250 94 ee 7b bd 31 b9 8b 3c 5f b5 05 3e 74 03 e7 3d
       -0.061506823 0.01705608 0.13057469 0.112799555
000260 2b b3 de 3d 42 75 bd bc 3f 3d 86 bd 49 c4 9c be
       0.10874017 -0.023127202 -0.065546505 -0.30618504
000270 d2 ea a0 be 79 65 b5 be 80 6b 9d be 49 dc a4 be
       -0.31429154 -0.3542898 -0.30746078 -0.32199314
000280 0d b0 9c 3e be e2 5b 3e 01 1c 83 bc 45 34 8f bd
       0.30603066 0.21473214 -0.016004564 -0.069923915
000290 8e c4 1d be e8 9c 37 3e 10 ba 90 3d 8d e9 34 bd
       -0.15407011 0.17930949 0.070667386 -0.044168044
0002a0 78 c5 03 be 81 59 d5 bd 53 d2 96 3e 7c 20 2b 3e
       -0.12868297 -0.10417462 0.2945734 0.1671161
0002b0 45 c2 b2 bc 47 85 92 bd 5c c8 f1 bd 83 6a 95 bd
       -0.02182115 -0.07154327 -0.11805794 -0.07295706
0002c0 8c 29 02 bd a4 71 72 bd 5c d8 3c be 3d 4a 53 be
       -0.031777903 -0.059190407 -0.1844191 -0.20633788
0002d0 ef 47 28 3d 9f 2f 09 3e cf 1a 05 3e 6c a6 8c 3c
       0.041084226 0.13397072 0.12998508 0.0171692
0002e0 ab d0 b0 bc 3a 7f 29 bd f1 ca 92 bd 34 de 99 be
       -0.021583876 -0.0413811 -0.07167614 -0.3005234
0002f0 54 93 8e be ea 45 6d be 7f 32 00 3e 0e 8f d6 3c
       -0.27846777 -0.23171201 0.12519263 0.02619126
000300 5e bd 3d be 2d 6f 99 be 58 3f cf be 12 10 eb bc
       -0.18529269 -0.29967633 -0.40478015 -0.028694186
000310 da 86 24 bc 83 45 8c bd dd 02 37 be f4 bf 1b be
       -0.010041917 -0.06849196 -0.17872186 -0.15209943
000320 7b 47 e8 3e 4d 28 85 3e 8d d5 0a 3e c8 16 39 3d
       0.45367035 0.2600731 0.13558026 0.04518774
000330 de 00 bb bc 35 6c 96 3d e3 69 25 bd da 9c d9 bd
       -0.022827562 0.073448576 -0.040384185 -0.1062562
000340 a5 31 d5 bd 8c 6f f8 bd 80 a2 14 3f 9b cf 89 3e
       -0.104098596 -0.12130651 0.58060455 0.26916203
000350 27 a9 13 3e 75 f2 59 3e 33 61 72 3e 23 55 bb bd
       0.14419995 0.21283896 0.23669891 -0.09147098
000360 d8 89 41 3d 13 07 e6 3c 6e e7 b3 3d d7 5a 8c 3e
       0.0472506 0.028079545 0.08784376 0.27413055
000370 90 26 77 bc 12 ce 7a 3e 31 10 a1 3e 29 09 76 3e
       -0.015084878 0.24492672 0.31457666 0.24026932
000380 70 d0 e3 3d e9 6b 11 be 62 ad 4a be 49 ac 80 be
       0.11123741 -0.1420132 -0.19792703 -0.25131443
000390 96 2d 9f be 23 c2 71 be e8 7e 23 bc 36 71 4f 3c
       -0.31089467 -0.23609214 -0.009978987 0.012661269
0003a0 75 b1 5e 3e 14 0b 16 3e a6 d6 4c 3e dc 8a 8c bd
       0.21747382 0.14652663 0.20003757 -0.06862423
0003b0 ae 26 79 bc 69 ee 1b 3e f0 62 79 3d ca 31 38 3e
       -0.015206976 0.15227665 0.06088537 0.17987743
0003c0 10 30 b1 bc 5f 91 0b be 16 7e 19 be fc 6b f2 bd
       -0.021629363 -0.13629673 -0.14989504 -0.11837003
0003d0 c7 59 53 3d a4 39 d1 3d 57 27 0a be bb ec 43 be
       0.05159929 0.10216072 -0.1349157 -0.19133274
0003e0 8b 86 6a be 73 cb 22 be 1c 24 b0 be ca b2 87 be
       -0.22902887 -0.15897922 -0.3440255 -0.26503593
0003f0 b2 e5 03 be a0 34 3e be 81 f6 17 be 30 69 3d be
       -0.1288059 -0.18574762 -0.14840128 -0.18497157

layer3.0.bias f4 [64]
000000 16 56 05 be ac 7c 98 3e 4f c8 b5 be fa ce 45 be
       -0.1302112 0.29782617 -0.35504386 -0.19317237
000010 f4 ac a8 be e6 39 46 bf 21 8b aa 3e 5e f7 28 be
       -0.32944453 -0.77432096 0.33309272 -0.16500613
000020 f1 c0 14 be b2 4d 8c be b9 9b 2d 3e 84 91 4e be
       -0.14526726 -0.27403027 0.16953935 -0.20172697
000030 cb 92 28 bf 7a 1f 79 3d 91 b8 71 be 98 ff 4f bf
       -0.6584899 0.060821034 -0.23605563 -0.8124938
000040 b9 c7 be be f4 e3 a8 be 95 41 05 bf 96 b8 43 bf
       -0.3726175 -0.32986414 -0.52053195 -0.7645353
000050 90 1f d4 be 5a 69 68 be 66 18 83 be 7b ad 27 bf
       -0.4143033 -0.22696438 -0.25604552 -0.65499085
000060 7b 78 44 be 6f 0a 41 bf ce 04 60 be 22 79 87 be
       -0.19186585 -0.75406545 -0.21876833 -0.26459605
000070 ab 30 ad be 2c 57 12 bf b1 c1 70 be 68 0e 29 bf
       -0.33826193 -0.57164264 -0.23511387 -0.6603761
000080 49 c5 ac be 41 3e 33 bd 40 49 2c be 4a 36 1c be
       -0.33744267 -0.04376054 -0.16824818 -0.15255085
000090 f0 1a 03 bf d9 0a d1 bd 0b e2 84 bd 5f 63 aa 3c
       -0.5121298 -0.10207147 -0.06488427 0.020799337
0000a0 bb a9 89 be cf dc 26 be d6 4e 42 be 52 8e 55 bf
       -0.26887307 -0.1629517 -0.18975386 -0.8342029
0000b0 79 c3 96 3e 90 66 01 be da 06 b2 ba 94 e5 e7 be
       0.2944601 -0.1263678 -0.0013582364 -0.45292342
0000c0 b5 de 56 be ee 1b e4 bd c2 5a ad bd c1 58 1c be
       -0.20983393 -0.1113814 -0.08464576 -0.15268232
0000d0 86 a2 b5 bd 12 d9 3a 3e c9 b7 ea bd 12 f5 35 bd
       -0.088688895 0.18246868 -0.114608355 -0.04442317
0000e0 2e b0 1f be ef 5b e7 bc f2 c7 ab be b6 d5 5f be
       -0.15594551 -0.02824208 -0.33550984 -0.21858868
0000f0 fa cf 62 bd 95 cf a9 be cc d8 4b be 16 96 18 bf
       -0.055374123 -0.33166185 -0.1990692 -0.5960401

layer3.2.weight f4 [64]
000000 c3 06 a6 3d 25 26 9f bc 62 7f db 3e 88 8f bd bb
       0.081067584 -0.019427368 0.42870623 -0.0057849325
000010 34 11 9e bb 09 0a 95 3e 98 d0 b6 3e e3 f9 2b 3e
       -0.004823828 0.2910922 0.3570602 0.16794543
000020 c6 28 9e 3d 5b a9 0c 3d c0 ef e7 3b e9 e9 a6 3c
       0.07722621 0.034341197 0.007078141 0.020375209
000030 bc 62 18 3f 15 55 85 bf 07 53 0a 3e 94 1e 6f 3f
       0.59525657 -1.041659 0.13508235 0.93406034
000040 5e cd 8f 3a db 5e 2a 3f 69 56 89 3e bd 78 2f 3f
       0.0010971238 0.6655099 0.26823738 0.68543607
000050 ed 54 26 3c 8b 70 c7 bb 55 ca af 3e 1d ba f3 3e
       0.010152084 -0.006086414 0.34334055 0.4760293
000060 e7 54 4b 3c 30 74 2a 3f 7c 62 05 3f 06 60 aa 3e
       0.012410379 0.6658354 0.521034 0.33276385
000070 6d 43 bf bb 86 d0 d4 3e 9a c9 3d 3e 12 62 5a 3e
       -0.005836895 0.4156534 0.18533936 0.21326473
000080 61 bd f1 bb 4a 5e fb 3d fc 7b fd 3e 82 af 97 3e
       -0.007377312 0.122738436 0.49508655 0.2962609
000090 2f 51 69 3e 64 6b 32 3e 76 ec 2b 3e 8e de 8f 3e
       0.22784875 0.17423779 0.16789421 0.28099483
0000a0 c7 8e 5d 3d 8b c7 ce 3e a4 c1 50 3e 48 86 68 3f
       0.05409124 0.40386614 0.20386368 0.90829897
0000b0 fe 22 29 3e 9c ae 69 3e 45 a9 7d 3e 7e 5c bd bb
       0.16517255 0.22820514 0.24771602 -0.005778848
0000c0 3a fd 22 3c f3 48 a1 3e 9e 50 b6 3e 0f 53 c6 3d
       0.009948069 0.31500968 0.3560838 0.09683811
0000d0 23 01 b0 3e e8 89 b9 3e 4c 40 96 3e ac 25 80 3f
       0.34375867 0.36238027 0.2934593 1.0011497
0000e0 0e 15 35 3e 88 6b d2 3c 0f 93 78 3e f5 b5 8a 3d
       0.17683813 0.02568604 0.24274848 0.06772987
0000f0 e1 6e c6 3c 75 24 3b 3c a6 87 14 3f a4 e4 65 bc
       0.024222793 0.011422266 0.58019483 -0.014031563

layer3.2.bias f4 [64]
000000 17 18 eb 3c d0 0d 84 bb 13 d7 a0 3d 33 0f c7 ba
       0.02869801 -0.004029967 0.07853522 -0.0015187025
000010 be 11 f8 ba fc 46 14 3d f8 d2 6f bd 13 b2 91 3d
       -0.0018926186 0.03620051 -0.058550805 0.07114043
000020 4b 6c da 3c 42 9b c1 ba 5a c5 97 ba 51 c5 b0 3a
       0.026662966 -0.0014771002 -0.0011579201 0.0013486539
000030 4f 80 9b 3d 6e da e4 3c 51 3e 63 3d 3e 2e c0 3d
       0.07592832 0.027936187 0.05547935 0.0938382
000040 f0 43 3c 3b a3 ed 04 3e 5b 4e f7 3c 30 8b c5 3d
       0.0028727017 0.12981276 0.03018873 0.096456885
000050 e6 7f 58 bb 33 a1 46 3b 3c f1 68 3d 17 0b 76 3d
       -0.0033035218 0.0030308485 0.056870684 0.06006917
000060 6e 3f d4 39 72 a2 07 3e d2 9f 57 3e 79 d8 4f 3d
       0.0004048305 0.13245562 0.2105706 0.050743554
000070 2f a4 2b 3b d2 b0 70 3d 1a eb a0 3d 54 d3 fc 3c
       0.002619039 0.05876238 0.07857342 0.030862488
000080 16 85 87 ba 52 1b ad bb 38 5e dc bb 67 6a f8 3d
       -0.0010339345 -0.005282798 -0.006725099 0.1212967
000090 44 e0 61 bc 43 f1 9f 3d bb 42 d0 3b 6f 96 78 3c
       -0.013786379 0.07809689 0.006355611 0.015172585
0000a0 20 ad 36 3b 97 2c 3c 3c b1 a6 03 3d 79 9b 2e 3e
       0.0027874187 0.01148524 0.03214139 0.17051496
0000b0 f2 66 16 bc 2b f7 b7 3d dd fd 7a 3d ad d5 e1 3a
       -0.0091798175 0.089826904 0.06127726 0.0017229818
0000c0 99 cc 57 bb d0 b1 1c 3e a2 af 8b 3d 5d 21 2b 3d
       -0.0032928346 0.15302205 0.06820609 0.041779865
0000d0 07 f3 81 3d 83 81 bb bd 1e d7 cf 3d 5a f2 d1 bc
       0.06345182 -0.09155562 0.10148452 -0.025628258
0000e0 fe cc 8c 3d c2 e0 e2 3a 25 fb d6 3d 53 2f 4c 3c
       0.06875037 0.0017309415 0.10497121 0.012462455
0000f0 21 01 bb 3b fc 91 2f 3b ad d7 72 3e 5b e3 c9 bb
       0.0057069217 0.0026789894 0.23715086 -0.006161136

layer3.2.running_mean f4 [64]
000000 a6 28 86 3f 48 2d 2d 40 6f f4 0c 3d 8b c3 c1 3e
       1.0481155 2.7058887 0.034412798 0.378445
000010 65 e2 3a be a5 9b bb be 70 b6 94 3e 68 77 c3 3f
       -0.18250425 -0.36642185 0.2904544 1.5270815
000020 f6 d3 a0 3f 6e 8d 2e be a0 b0 dd 3f 78 75 d8 3e
       1.2564685 -0.17046139 1.7319527 0.42277122
000030 77 2d 5d bf ce aa c5 3e 15 ba 9f 3f 05 aa 9b bf
       -0.863975 0.38606876 1.2478663 -1.2161261
000040 2b 91 df be b2 a7 b1 3d bc ba 77 bf 74 b7 45 bf
       -0.43665442 0.086745635 -0.9676931 -0.7723305
000050 2c 52 de be 47 b9 8a 3e c5 6e 8f be 9f 49 77 bf
       -0.43422067 0.2709448 -0.28014198 -0.9659671
000060 65 ae b6 be 26 f6 1c bf b4 63 e3 3f ae ce ff bd
       -0.35679927 -0.6131309 1.7764802 -0.12490593
000070 7d 20 33 bf df f5 74 bf 96 bc dd 3f 1f 0f 44 bf
       -0.6997145 -0.9568767 1.7323177 -0.7658557
000080 07 b6 dc bc 71 33 a7 3e 2f 0f 7e 3f 25 f2 9a 3f
       -0.026942266 0.32656434 0.9924192 1.2105147
000090 b4 fe f5 be f2 97 e0 3f 6a c1 52 3e fa 54 07 40
       -0.48045886 1.754637 0.20581594 2.1145616
0000a0 d2 2c ea be 6a 9d 83 3e a9 e6 1a be 63 da 27 be
       -0.4573732 0.25706035 -0.15127052 -0.16391902
0000b0 45 7b 43 40 7d 7a ac 3f 54 cb 3a 40 33 5f 08 bf
       3.0543988 1.347488 2.9186602 -0.5327026
0000c0 d9 8a 00 be d9 f7 da 3f b8 87 10 3e 8f 47 cb 3f
       -0.12552966 1.7106887 0.14114273 1.5881213
0000d0 ef 0c bc 3c ad 82 37 3f cc a0 65 3e b2 54 c5 3e
       0.022955386 0.7168377 0.2242462 0.3854118
0000e0 1d 9c 8b 3f 53 9e 1a 3e 34 f5 cb 3f 11 7c 11 3f
       1.0907017 0.15099458 1.5934205 0.56829935
0000f0 4d 43 9d 3f 4d d5 1d 3e 4c f7 df 3f b9 27 03 bf
       1.2286164 0.15413399 1.7497344 -0.51232487

layer3.2.running_var f4 [64]
000000 6d 19 7f 41 33 ef 24 41 56 12 61 41 11 36 30 41
       15.943707 10.308398 14.066977 11.0132
000010 54 89 6a 40 0c 1c e4 40 82 97 ce 40 13 50 bd 41
       3.6646318 7.1284237 6.4559946 23.664099
000020 5c d5 95 41 2f c3 47 40 4b 69 61 41 18 c2 22 41
       18.72918 3.121288 14.088206 10.172386
000030 ae 20 98 41 26 ac 3f 40 14 99 9e 41 18 29 4d 41
       19.015957 2.994882 19.824745 12.822533
000040 5f 01 63 41 da 0f 11 41 16 4e 7d 41 d7 dc 89 41
       14.187835 9.06637 15.831564 17.232832
000050 0d bf 10 40 f3 05 cf 41 45 c6 fe 40 9b 5a 8b 41
       2.2616608 25.877905 7.961703 17.41924
000060 93 98 54 40 17 fc cb 40 49 d7 15 42 7f bb 2b 41
       3.3218124 6.3745227 37.46024 10.733275
000070 e5 a4 8e 40 82 f6 71 41 7b 28 d9 41 f5 da 15 41
       4.4576287 15.122683 27.144766 9.365956
000080 e9 d1 46 41 f4 62 a2 40 c5 70 14 41 3f a4 83 41
       12.426248 5.0745792 9.277532 16.455198
000090 d9 7a 41 40 a3 91 3f 41 de 04 40 40 e1 86 5a 41
       3.023123 11.973056 3.000297 13.657929
0000a0 8a 28 51 40 bb 01 00 41 20 f0 a2 40 4d 54 de 40
       3.2680993 8.0004225 5.091812 6.9477906
0000b0 85 e5 76 41 b8 a1 b2 41 65 fb 93 41 b2 c8 16 41
       15.431035 22.328964 18.497751 9.423998
0000c0 04 f4 8a 40 c8 6c 94 41 2f 96 46 41 1a e8 13 42
       4.342287 18.553116 12.411666 36.97666
0000d0 c4 bb 12 41 f6 42 f8 40 a8 b8 ba 40 33 d4 69 40
       9.170841 7.758174 5.835041 3.6535766
0000e0 74 7d 97 41 55 f5 78 40 92 c7 e7 41 35 bb d5 40
       18.936256 3.8899739 28.972446 6.6791024
0000f0 61 a1 84 41 0a ff 91 40 6c 5e 05 42 e4 f2 93 40
       16.578798 4.5623827 33.34221 4.6233997

layer4.0.weight f4 [64, 64, 5]
000000 3c 18 e0 3d 71 d2 99 3b ca 8a c2 bc 73 e1 04 3d
       0.10942122 0.004694276 -0.02374782 0.032441568
000010 fb 0b 27 bc 82 6c e1 bd 25 e6 85 3b 34 a2 4e bc
       -0.010195727 -0.11007024 0.0040862733 -0.012611914
000020 f7 a0 d6 bd ee c0 55 bd 29 a0 89 bd 01 9e 1d 3d
       -0.1047992 -0.052185945 -0.06720001 0.038480762
000030 6c 35 42 3e 05 1d 24 3e 5e fa 1b 3e e2 03 18 bd
       0.18965691 0.16026695 0.15232226 -0.037113078
000040 88 9d cd 3c 00 13 26 3d 23 c4 d0 3d 5c 57 d5 3d
       0.02509953 0.040545464 0.1019366 0.10417053
000050 d7 30 b6 3c d4 47 26 3d 51 43 51 3c a2 c6 a0 bd
       0.022240086 0.040595844 0.012772397 -0.07850386
000060 38 65 05 bd 17 86 0b be a5 84 a3 bd a0 3d 18 be
       -0.032567233 -0.1362537 -0.07984284 -0.14867258
000070 ae b7 82 be 62 ea 2b be 55 60 84 bd 9f 24 a2 3d
       -0.2553076 -0.16788629 -0.064636864 0.07917141
000080 05 23 45 3e a1 7e 17 3e 2a fb e5 3d 79 5a 66 bd
       0.1925164 0.14794399 0.11229546 -0.056238625
000090 08 5f 6c bd f2 c5 a6 bd 0d 12 cd bd 3a 83 86 bd
       -0.057707816 -0.08143224 -0.100132085 -0.06567998
0000a0 bb 90 97 bc d1 80 82 bd a7 ca 91 bc 1a aa 0e be
       -0.01850163 -0.06372226 -0.017796827 -0.13932076
0000b0 a9 c7 ba bd 36 ea 7d 3d b4 88 83 3d 3f 1d 07 3d
       -0.091201134 0.06199094 0.064225584 0.032986876
0000c0 51 a9 18 3d 02 1e 38 3d 13 b7 a9 bb cd f6 5c 3d
       0.037270848 0.044950493 -0.005179295 0.053946305
0000d0 59 17 06 bd 6b e8 86 3c fe ce e1 bb e0 a4 4e 3d
       -0.03273711 0.016468247 -0.0068911305 0.050450206
0000e0 6c 2c a2 3d f6 af ab bb df c9 67 3c 7f 78 0b bd
       0.07918629 -0.005239482 0.014147251 -0.03405046
0000f0 a6 1e f8 bd e7 f0 35 bd f1 c0 d7 bc 56 b2 a6 bc
       -0.12115221 -0.044419196 -0.026337119 -0.02034871
000100 cb af a1 3b b5 7c 62 3e 9d c3 76 3e 1a 8c 44 3e
       0.0049342862 0.22117884 0.24098058 0.1919407
000110 c6 6d 05 3e 3e 0d 1f 3e 49 08 a2 bd 12 a3 94 bd
       0.13030156 0.15532395 -0.079117365 -0.07257666
000120 1b be 5c bd eb 5d f9 bd ff 9a bb bd 39 13 c3 bd
       -0.053892236 -0.121761166 -0.091604225 -0.09525151
000130 ab 59 88 3d fa af 17 3d 98 7a 04 bc ce 58 c1 bd
       0.06657728 0.03703306 -0.008085869 -0.09440766
000140 9b d2 1b bd e0 56 bc bd 64 08 a1 bb f2 8e 79 bd
       -0.038042646 -0.091962576 -0.0049143303 -0.06092734
000150 28 b1 a5 bc 30 07 d5 3d ae ed 29 3e 52 83 04 3e
       -0.020226076 0.104017615 0.16594574 0.1294072
000160 db 5d 2a 3e f6 b7 ab 3d 0e fb 70 bd ab 2c 8a 3d
       0.16637366 0.08384697 -0.058833174 0.06746801
000170 c1 51 0d 3e b6 f6 6e 3e 82 9a 1c 3e 96 37 be be
       0.13800718 0.233363 0.15293315 -0.37151784
000180 8f b3 98 be 3e f3 7b be 4b 26 94 be 95 fa 6d be
       -0.29824492 -0.24604508 -0.28935465 -0.2324012
000190 c7 a2 d4 3b 10 0d 03 3d 57 3e 2f bd 09 36 94 3d
       0.006489131 0.03199488 -0.04278406 0.07236869
0001a0 66 44 e3 3d 7f a8 de 3c a5 78 44 3d c1 89 87 3d
       0.1109703 0.027179955 0.047966618 0.06618071
0001b0 00 72 f4 3d f2 dc bf 3c 27 f7 b5 be 4a ce fe bd
       0.11935806 0.023420785 -0.35540125 -0.1244169
0001c0 f0 36 95 bd 43 f8 c4 3d 88 fb 90 3d f2 59 04 bd
       -0.07285869 0.09617665 0.07079226 -0.03231234
0001d0 27 9d dc 3c 95 de 24 bc 84 42 58 3d bc 18 2d 3d
       0.026930405 -0.010062833 0.05279781 0.042259917
0001e0 a3 c2 f1 bd 90 4c 56 bc 8b 26 05 3d a4 f3 1b 3b
       -0.11804702 -0.013079777 0.03250746 0.0023796344
0001f0 04 55 87 3d 3f 4d 0a 3e e6 7c 31 3e 12 28 95 3e
       0.06608012 0.1350603 0.17332801 0.29132134
000200 f6 99 bd 3e fe 8f 8b 3e 15 ac f7 bd 6b 68 ed bd
       0.37031525 0.27258295 -0.12093369 -0.11592182
000210 7b 71 24 be 98 65 63 be 05 74 48 be 55 98 08 3f
       -0.16058914 -0.22206724 -0.19575508 0.5335744
000220 6e 0e 14 3f b6 26 0d 3f 3e ba 1f 3f 89 82 27 3f
       0.5783452 0.55137193 0.6239356 0.65433556
000230 70 a5 5e bd 10 4d d6 bc 65 6a 74 3d f3 90 8d 3d
       -0.054356992 -0.026159793 0.05967178 0.069124125
000240 12 bb 50 3d 93 d0 05 be 75 03 65 bc 05 ed db 3a
       0.050959654 -0.13067846 -0.013977875 0.0016779011
000250 a1 64 86 3d e6 61 27 bd 2a 06 9d bd 82 04 b8 bd
       0.06562162 -0.040864848 -0.07667191 -0.08985235
000260 fa 9b 02 be 3e f6 04 be 16 d9 09 be d2 54 22 be
       -0.12754813 -0.12984559 -0.13461718 -0.15852669
000270 ba b7 04 bd f9 f5 87 bc 02 f3 15 3d 61 ea 86 bd
       -0.032401778 -0.016596781 0.036608703 -0.06587673
000280 23 a6 ba bc 3f ef 25 bc 17 5d de bb f8 f5 d5 3a
       -0.022784298 -0.0101278415 -0.0067859995 0.0016323915
000290 30 00 2b bd 9d d1 38 3d a4 41 0d 3e 68 f9 8b 3d
       -0.041748226 0.045121778 0.13794571 0.0683468
0002a0 5d 7d 2c 3e 44 bb 44 3e 69 0f 88 be 87 52 8e be
       0.16844697 0.19212061 -0.26574257 -0.27797338
0002b0 d9 5f 77 be d8 7b f5 bd 2a 78 e3 bd 89 af 2c 3c
       -0.24157657 -0.11986512 -0.11106904 0.010539898
0002c0 e0 d9 b0 bd cb ae e6 bd d6 9d 3e be 94 90 c6 bd
       -0.08635306 -0.11263808 -0.18614897 -0.09695545
0002d0 ed 41 09 be 37 15 95 bd 36 9d 10 bd ae e1 83 bd
       -0.13404055 -0.07279437 -0.035306178 -0.06439529
0002e0 61 a3 13 bd b4 01 1c be ca e6 86 bd 8d e4 55 bb
       -0.036044482 -0.15235025 -0.06586988 -0.0032637448
0002f0 3f b4 46 bd 1e 64 74 bc 2f 51 73 be a2 18 7e be
       -0.04851174 -0.014916448 -0.23761438 -0.24814084
000300 72 84 ed bd cd fd 10 be 46 fe 47 be 43 a9 cf bd
       -0.115975276 -0.14159317 -0.19530591 -0.10139706
000310 1b 55 0e be 11 6e 0e be 84 8d 17 be 02 9e 2c be
       -0.13899653 -0.13909175 -0.14800078 -0.1685715
000320 70 6b 6d 3e 67 28 a3 3e 10 93 65 3e fe 68 69 3e
       0.23185515 0.31866762 0.22419381 0.22793958
000330 35 e7 57 3e cf d4 e1 b9 b5 ca 05 3e 62 70 55 3e
       0.21084292 -0.000430739 0.13065608 0.20843652
000340 6a f4 87 3e 6d 19 b8 3e 66 53 5e 3d a0 96 63 3d
       0.2655366 0.35956898 0.054278754 0.05556357
000350 34 61 1a bd d2 ca 26 bd b0 0c a3 bd 64 46 09 be
       -0.037690356 -0.04072077 -0.07961404 -0.13405758
000360 c4 a6 1f be 68 4c 89 be 5e c3 92 be 5e ff b5 be
       -0.1559096 -0.26816106 -0.28664678 -0.35546392
000370 9f 06 81 bb 2e 69 27 bd fd f2 a4 ba 2b 6b d0 bb
       -0.003937557 -0.04087179 -0.0012584623 -0.0063604317
000380 e8 5e 74 bd 97 8d 26 bd 66 85 f3 bd 10 bb 25 be
       -0.059660822 -0.040662374 -0.11890678 -0.1618464
000390 3a 15 52 be b4 71 21 be 21 03 61 3d e0 be 1e bd
       -0.2051591 -0.1576603 0.054934625 -0.03875625
0003a0 85 ab 32 3d 44 fc 00 bd 5a c8 84 bc 47 19 d5 3d
       0.043620605 -0.03149058 -0.016208816 0.10405212
0003b0 41 06 ba 3d c7 6b 98 3d d4 41 df 3c 26 c2 1c 3d
       0.09083224 0.07442432 0.027253069 0.038271092
0003c0 c1 10 e7 3d ee 2f a2 3d 3b 8f f1 bb f0 25 be 3c
       0.112824924 0.07919298 -0.0073718107 0.02321145
0003d0 9d bb 72 bc 8c 76 40 3d 69 63 9b 3b ae c7 7d bd
       -0.014815238 0.046988055 0.004742075 -0.061958008
0003e0 76 60 a9 bc 4b a1 43 bd b7 36 ac bd 3c 93 ca bc
       -0.020675879 -0.047761243 -0.084088735 -0.02472841
0003f0 34 c0 b0 3d 0d 77 b3 3d d4 0c 3b 3c 2a 88 41 3d
       0.0863041 0.087629415 0.011416633 0.047248997

layer4.0.bias f4 [64]
000000 9c 98 7c be 0e 24 a3 be e5 2c a5 be 95 c6 98 be
       -0.24667591 -0.31863445 -0.32260814 -0.29839006
000010 c7 40 25 be 1e ee 28 be 18 33 6a be 62 9b 21 be
       -0.16137992 -0.16497084 -0.22871053 -0.1578193
000020 72 d9 82 bd 6e 30 80 be a2 27 3f be b2 b4 1e be
       -0.06389131 -0.2503695 -0.18667462 -0.15498617
000030 2c d7 8f be 05 0f 40 be a6 2a bd be 27 9d b1 be
       -0.2809385 -0.1875573 -0.369466 -0.3469021
000040 2d 9d 30 be ad f7 09 bf 54 fc d5 be 18 55 6f be
       -0.17247458 -0.5389355 -0.41794074 -0.23372304
000050 26 39 85 bd f0 6e d3 be b7 a5 7c be f1 58 e0 be
       -0.06505041 -0.41295576 -0.2467259 -0.43817857
000060 4e a9 9c be 0b 0f 4d be 36 27 b2 be 53 5b 4c be
       -0.3059792 -0.2002527 -0.3479554 -0.19956712
000070 b4 65 91 be 68 20 2f be e1 10 a5 be 76 7c 8b be
       -0.28397906 -0.17102206 -0.3223944 -0.27243394
000080 72 e5 05 be 0b ec 8d be b9 e3 6a be 4f 16 cf be
       -0.13075808 -0.2771915 -0.22938432 -0.40446708
000090 aa 94 07 be 44 d3 1b be 8f c0 8d be 10 07 0a be
       -0.13240305 -0.1521731 -0.27685973 -0.13479257
0000a0 35 0b e0 bd 3f 72 6d be 12 41 fb bd 76 40 4a be
       -0.109396376 -0.23188113 -0.122682706 -0.19751152
0000b0 ff 33 8e be fe 25 2a be 82 8d ee be eb b6 88 be
       -0.27774045 -0.16616055 -0.46592337 -0.26702055
0000c0 81 49 25 be cc 0d 33 be ee d7 a5 be 23 10 9f be
       -0.16141321 -0.17485732 -0.32391304 -0.31067
0000d0 a0 e7 66 be b1 c0 ec be 56 c4 51 be b2 99 d7 bd
       -0.22549295 -0.46240762 -0.20485052 -0.10527362
0000e0 6f f3 93 bd 1f 31 55 be 76 20 43 be 9c 5b ec be
       -0.07224166 -0.2081952 -0.19055352 -0.46163642
0000f0 80 a4 4e be fe e8 81 3e 0e ed e3 be 6d e5 94 be
       -0.2017994 0.2537307 -0.44516796 -0.29081288
